…
n defined  as part of a Dense  layer x = layers.Dense(units=200, activation  = 'relu')(x) Example 2-6. A ReLU activation function defined  as its own layer x = layers.Dense(units=200)(x) x = layers.Activation ('relu')(x) In our example, we pass the input through two Dense  layers, the first with 200 units and the second with 150, both with ReLU activation functions. Inspecting the model We can use the model.summary()  method to inspect the shape of the network at each layer, as shown in Table 2-1 . Table 2-1. Output from the model.summary()  method Layer (type) Output shape Param # InputLayer (None, 32, 32, 3) 0 Flatten (None, 3072) 0 Dense (None, 200) 614,600 Dense (None, 150) 30,150 Dense (None, 10) 1,510 Total params 646,260 Trainable params 646,260 Non-trainable params 0 Notice how the shape of our Input  layer matches the shape of x_train  and the shape of our Dense  output layer matches the shape of y_train . Keras uses None  as a marker for the first dimension to show that it doesn’t yet know the number of observations that will be passed into the network. In fact, it doesn’t need to; we coul
…
rs in the second convolutional layer that have a depth of 10, to match the 10 channels output by the first convolutional layer. In general, the depth of the filters in a layer is always equal to the number of channels output by the preceding layer. Inspecting the model It’s really informative to look at how the shape of the tensor changes as data flows through from one convolutional layer to the next. We can use the  model.summary() method to inspect the shape of the tensor as it passes through the network (Table 2-2 ). Table 2-2. CNN model summary Layer (type) Output shape Param # InputLayer (None, 32, 32, 3) 0 Conv2D (None, 16, 16, 10) 490 Conv2D (None, 8, 8, 20) 1,820 Flatten (None, 1280) 0 Dense (None, 10) 12,810 Total params 15,120 Trainable params 15,120 Non-trainable params 0 Let’s walk through our network layer by layer, noting the shape of the tensor as we go: 1.The input shape is (None, 32, 32, 3) —Keras uses None  to represent the fact that we can pass any number of images through the network simultaneously. Since the network is just performing tensor algebra, we don’t need to pass images through t
…
t‐ work is concluded with an output Dense  layer of size 10. The order in which to use the batch normalization and activation layers is a matter of preference. Usually batch normalization layers are placed before the activation, but some successful architectures use these layers the other way around. If you do choose to use batch normalization before activation, you can remember the order using the acronym BAD  (batch normalization, activation, then dropout). The model summary is shown in Table 2-3 . Table 2-3. Model summary of the CNN for CIFAR-10 Layer (type) Output shape Param # InputLayer (None, 32, 32, 3) 0 Conv2D (None, 32, 32, 32) 896 BatchNormalization (None, 32, 32, 32) 128 LeakyReLU (None, 32, 32, 32) 0 Conv2D (None, 16, 16, 32) 9,248 BatchNormalization (None, 16, 16, 32) 128 LeakyReLU (None, 16, 16, 32) 0 Conv2D (None, 16, 16, 64) 18,496 BatchNormalization (None, 16, 16, 64) 256 LeakyReLU (None, 16, 16, 64) 0 Conv2D (None, 8, 8, 64) 36,928 BatchNormalization (None, 8, 8, 64) 256 52 | Chapter 2: Deep Learning",3467
Summary,"Layer (type) Output shape Param # LeakyReLU (None, 8, 8, 64) 0 Flatten (None, 4096) 0 Dense (None, 128) 524,416 BatchNormalization (None, 128) 512 LeakyReLU (None, 128) 0 Dropout (None, 128) 0 Dense (None, 10) 1290 Total params 592,554 Trainable params 591,914 Non-trainable params 640 Before moving on, make sure you are able to calculate the output shape and number of parameters for each layer by hand. It’s a good exercise to prove to yourself that you have fully understood how each layer is constructed and how it is connected to the preceding layer. Don’t forget to include the bias weights that are include
…
 2D latent space is probably too small to encode sufficient relevant information from the input. However, as we shall see, increasing the dimensionality of the latent space quickly leads to problems if we want to use the autoencoder as a generative model. Let’s now see how to build the encoder and decoder. The Encoder In an autoencoder, the encoder’s job is to take the input image and map it to an embedding vector in the latent space. The architecture of the encoder we will be building is shown in Table 3-1 . Table 3-1. Model summary of the encoder Layer (type) Output shape Param # InputLayer (None, 32, 32, 1) 0 Conv2D (None, 16, 16, 32) 320 Conv2D (None, 8, 8, 64) 18,496 Conv2D (None, 4, 4, 128) 73,856 Flatten (None, 2048) 0 Dense (None, 2) 4,098 Total params 96,770 Trainable params 96,770 Non-trainable params 0 To achieve this, we first create an Input  layer for the image and pass this through three Conv2D  layers in sequence, each capturing increasingly high-level features. We use a stride of 2 to halve the size of the output of each layer, while increasing the number of channels. The last convolutional layer is flattened and connected
…
The Decoder,"Stack Conv2D  layers sequentially on top of each other. Flatten the last convolutional layer to a vector. Connect this vector to the 2D embeddings with a Dense  layer. The Keras Model  that defines the encoder—a model that takes an input image and encodes it into a 2D embedding. I strongly encourage you to experiment with the number of convo‐ lutional layers and filters to understand how the architecture affects the overall number of model parameters, model perfor‐ mance, and model runtime. The Decoder The decoder is a mirror image of the encoder—instead of convolutional layers, we use convolutional transpose  layers, as shown in Table 3-2 . Table 3-2. Model summary of the decoder Layer (type) Output shape Param # InputLayer (None, 2) 0 Dense (None, 2048) 6,144 Autoencoders | 65 Layer (type) Output shape Param # Reshape (None, 4, 4, 128) 0 Conv2DTranspose (None, 8, 8, 128) 147,584 Conv2DTranspose (None, 16, 16, 64) 73,792 Conv2DTranspose (None, 32, 32, 32) 18,464 Conv2D (None, 32, 32, 1) 289 Total params 246,273 Trainable params 246,273 Non-trainable params 0 Convolutional Transpose Layers Standard convolutional layers allow us to halve the size of an input tensor in both dimensions (height and width), by setting strides = 2 . The convolutional transpose layer uses the same principle as a standard convolutional layer (passing a filter across the image), but is different in that setti
…
The Loss Function,"encoder = models.Model(encoder_input , [z_mean, z_log_var , z], name=\""encoder\"" )  Instead of connecting the Flatten  layer directly to the 2D latent space, we con‐ nect it to layers z_mean  and z_log_var . The Sampling  layer samples a point z in the latent space from the normal distri‐ bution defined by the parameters z_mean  and z_log_var . The Keras Model  that defines the encoder—a model that takes an input image and outputs z_mean , z_log_var , and a sampled point z from the normal distribu‐ tion defined by these parameters. A summary of the encoder is shown in Table 3-4 . Table 3-4. Model summary of the VAE encoder Layer (type) Output shape Param # Connected to InputLayer (input) (None, 32, 32, 1) 0 [] Conv2D (conv2d_1) (None, 16, 16, 32) 320 [input] Conv2D (conv2d_2) (None, 8, 8, 64) 18,496 [conv2d_1] Conv2D (conv2d_3) (None, 4, 4, 128) 73,856 [conv2d_2] Flatten (flatten) (None, 2048) 0 [conv2d_3] Dense (z_mean) (None, 2) 4,098 [flatten] Dense (z_log_var) (None, 2) 4,098 [flatten] Sampling (z) (None, 2) 0 [z_mean, z_log_var] Total params 100,868 Trainable params 100,868 Non-trainable params 0 The only other part of the original autoencoder that we need to change is the loss function. The Loss Function Previously, our loss function only consisted of the reconstruction loss  between images and their attempted copies after being passed through the encoder and decoder. The reconstruction loss also app
…
 each convolutional layer to stabilize training. Even though each batch takes a longer time to run, the number of batches required to reach the same loss is greatly reduced. •We increase the β factor for the KL divergence to 2,000. This is a parameter that requires tuning; for this dataset and architecture this value was found to generate good results. Exploring the Latent Space | 87 The full architectures of the encoder and decoder are shown in Tables 3-5 and 3-6, respectively. Table 3-5. Model summary of the VAE faces encoder Layer (type) Output shape Param # Connected to InputLayer (input) (None, 32, 32, 3) 0 [] Conv2D (conv2d_1) (None, 16, 16, 128) 3,584 [input] BatchNormalization (bn_1) (None, 16, 16, 128) 512 [conv2d_1] LeakyReLU (lr_1) (None, 16, 16, 128) 0 [bn_1] Conv2D (conv2d_2) (None, 8, 8, 128) 147,584 [lr_1] BatchNormalization (bn_2) (None, 8, 8, 128) 512 [conv2d_2] LeakyReLU (lr_2) (None, 8, 8, 128) 0 [bn_2] Conv2D (conv2d_3) (None, 4, 4, 128) 147,584 [lr_2] BatchNormalization (bn_3) (None, 4, 4, 128) 512 [conv2d_3] LeakyReLU (lr_3) (None, 4, 4, 128) 0 [bn_3] Conv2D (conv2d_4) (None, 2, 2, 128) 147,584 [lr_3] BatchNormalization (bn_4) (None, 2, 2, 128) 512 [conv2d_4] LeakyReLU (lr_4) (None, 2, 2, 128) 0 [bn_4] Flatten (flatten) (None, 512) 0 [lr_4] Dense (z_mean) (None, 200) 102,600 [flatten] Dense (z_log_var) (None, 200) 102,600 [flatten] Sampling (z) (None, 200) 0 [z_mean, z_log_var] Total params 653,584 Trainable params 652,560 Non-trainable params 1,024 Table 3-6. Model summary of the VAE faces decoder Layer (type) Output shape Param # InputLayer (None, 200) 0 Dense (None, 512) 102,912 BatchNormalization (None, 512) 2,048 LeakyReLU (None, 512) 0 Reshape (None, 2, 2, 128) 0 Conv2DTranspose (None, 4, 4, 128) 147,584 BatchNormalization (None, 4, 4, 128) 512 LeakyReLU (None, 4, 4, 128) 0 Conv2DTranspose (None, 8, 8, 128) 147,584 88 | Chapter 3: Variational Autoencoders",3216
Summary,"Layer (type) Output shape Param # BatchNormalization (None, 8, 8, 128) 512 LeakyReLU (None, 8, 8, 128) 0 Conv2DTranspose (None, 16, 16, 128) 147,584 BatchNormalization (None, 16, 16, 128) 512 LeakyReLU (None, 16, 16, 128) 0 Conv2DTranspose (None, 32, 32, 128) 147,584 BatchNormalization (None, 32, 32, 128) 512 LeakyReLU (None, 32, 32, 128) 0 Conv2DTranspose (None, 32, 32, 3) 3,459 Total params 700,803 Trainable params 698,755 Non-trainable params 2,048 After around five epochs of training, our V AE should be able to produce novel images of celebrity faces. Analysis of the Variational Autoencoder First, let’s take a look at a sample of reconstructed faces. The top row in Figure 3-16 shows the original images and the bottom row shows the reconstructions once they have passed
…
\"" ) - 127.5) / 127.5     return img train = train_data .map(lambda x: preprocess (x)) Let’s now take a look at how we build the discriminator. The Discriminator The goal of the discriminator is to predict if an image is real or fake. This is a super‐ vised image classification problem, so we can use a similar architecture to those we worked with in Chapter 2 : stacked convolutional layers, with a single output node. The full architecture of the discriminator we will be building is shown in Table 4-1 . Table 4-1. Model summary of the discriminator Layer (type) Output shape Param # InputLayer (None, 64, 64, 1) 0 Conv2D (None, 32, 32, 64) 1,024 LeakyReLU (None, 32, 32, 64) 0 Dropout (None, 32, 32, 64) 0 Conv2D (None, 16, 16, 128) 131,072 BatchNormalization (None, 16, 16, 128) 512 LeakyReLU (None, 16, 16, 128) 0 Dropout (None, 16, 16, 128) 0 Conv2D (None, 8, 8, 256) 524,288 BatchNormalization (None, 8, 8, 256) 1,024 LeakyReLU (None, 8, 8, 256) 0 Dropout (None, 8, 8, 256) 0 Conv2D (None, 4, 4, 512) 2,097,152 BatchNormalization (None, 4, 4, 512) 2,048 Deep Convolutional GAN (DCGAN) | 99 Layer (type) Output shape Param # LeakyReLU (None, 4, 4, 512) 0 Dropout (None, 4, 4, 512) 0 Conv2D (None, 1, 1, 1) 8,192 Flatten (None, 1) 0 Total params 2,765,312 Trainable params 2,763,520 Non-trainable params 1,792 The Keras code to build the discriminator is provided in Example 4-4 . Example 4-4. The discriminator discriminator_input  = layers.Input(shape=(64, 64, 1))  x = layers.Conv2D(64, kernel_size =4, strides=2, padding=\""same\"", use_bias  = False)(     discriminator_input )  x = layers.LeakyReLU (0.2)(x) x = layers.Dropout
…
of the decoder in a variational autoencoder. In fact, the generator of a GAN fulfills exactly the same purpose as the decoder of a V AE: converting a vector in the latent space to an image. The concept of mapping from a latent space back to the original domain is very common in generative modeling, as it gives us the ability to manipulate vectors in the latent space to change high-level fea‐ tures of images in the original domain. The architecture of the generator we will be building is shown in Table 4-2 . Table 4-2. Model summary of the generator Layer (type) Output shape Param # InputLayer (None, 100) 0 Reshape (None, 1, 1, 100) 0 Conv2DTranspose (None, 4, 4, 512) 819,200 BatchNormalization (None, 4, 4, 512) 2,048 Deep Convolutional GAN (DCGAN) | 101 Layer (type) Output shape Param # ReLU (None, 4, 4, 512) 0 Conv2DTranspose (None, 8, 8, 256) 2,097,152 BatchNormalization (None, 8, 8, 256) 1,024 ReLU (None, 8, 8, 256) 0 Conv2DTranspose (None, 16, 16, 128) 524,288 BatchNormalization (None, 16, 16, 128) 512 ReLU (None, 16, 16, 128) 0 Conv2DTranspose (None, 32, 32, 64) 131,072 BatchNormalization (None, 32, 32, 64) 256 ReLU (None, 32, 32, 64) 0 Conv2DTranspose (None, 64, 64, 1) 1,024 Total params 3,576,576 Trainable params 3,574,656 Non-trainable params 1,920 The code for building the generator is given in Example 4-5 . Example 4-5. The generator generator_input  = layers.Input(shape=(100,))  x = layers.Reshape((1, 1, 100))(generator_input )  x = layers.Conv2DTranspose (     512, kernel_size =4, strides=1, padding=\""valid\"", use_bias  = False )(x)  x = layers.BatchNormaliza
…
