…
s part of a Dense  layer\nx = layers.Dense(units=200, activation  = 'relu')(x)\nExample 2-6. A ReLU activation function defined  as its own layer\nx = layers.Dense(units=200)(x)\nx = layers.Activation ('relu')(x)\nIn our example, we pass the input through two Dense  layers, the first with 200 units\nand the second with 150, both with ReLU activation functions.\nInspecting the model\nWe can use the model.summary()  method to inspect the shape of the network at each\nlayer, as shown in Table 2-1 .\nTable 2-1. Output from the model.summary()  method\nLayer (type) Output shape Param #\nInputLayer (None, 32, 32, 3) 0\nFlatten (None, 3072) 0\nDense (None, 200) 614,600\nDense (None, 150) 30,150\nDense (None, 10) 1,510\nTotal params 646,260\nTrainable params 646,260\nNon-trainable params 0\nNotice how the shape of our Input  layer matches the shape of x_train  and the shape\nof our Dense  output layer matches the shape of y_train . Keras uses None  as a marker\nfor the first dimension to show that it doesn’t yet know the number of observations\nthat will be passed into the network. In fact, it doesn’t need to; 
…
econd convolutional layer that have\na depth of 10, to match the 10 channels output by the first convolutional layer.\nIn general, the depth of the filters in a layer is always equal to the\nnumber of channels output by the preceding layer.\nInspecting the model\nIt’s really informative to look at how the shape of the tensor changes as data flows\nthrough from one convolutional layer to the next. We can use the  model.summary()\nmethod to inspect the shape of the tensor as it passes through the network\n(Table 2-2 ).\nTable 2-2. CNN model summary\nLayer (type) Output shape Param #\nInputLayer (None, 32, 32, 3) 0\nConv2D (None, 16, 16, 10) 490\nConv2D (None, 8, 8, 20) 1,820\nFlatten (None, 1280) 0\nDense (None, 10) 12,810\nTotal params 15,120\nTrainable params 15,120\nNon-trainable params 0\nLet’s walk through our network layer by layer, noting the shape of the tensor as we go:\n1.The input shape is (None, 32, 32, 3) —Keras uses None  to represent the fact\nthat we can pass any number of images through the network simultaneously.\nSince the network is just performing tensor algebra, we don’t need to pass images\nt
…
concluded with an output Dense  layer of size 10.\nThe order in which to use the batch normalization and activation\nlayers is a matter of preference. Usually batch normalization layers\nare placed before the activation, but some successful architectures\nuse these layers the other way around. If you do choose to use\nbatch normalization before activation, you can remember the order\nusing the acronym BAD  (batch normalization, activation, then\ndropout)!\nThe model summary is shown in Table 2-3 .\nTable 2-3. Model summary of the CNN for CIFAR-10\nLayer (type) Output shape Param #\nInputLayer (None, 32, 32, 3) 0\nConv2D (None, 32, 32, 32) 896\nBatchNormalization (None, 32, 32, 32) 128\nLeakyReLU (None, 32, 32, 32) 0\nConv2D (None, 16, 16, 32) 9,248\nBatchNormalization (None, 16, 16, 32) 128\nLeakyReLU (None, 16, 16, 32) 0\nConv2D (None, 16, 16, 64) 18,496\nBatchNormalization (None, 16, 16, 64) 256\nLeakyReLU (None, 16, 16, 64) 0\nConv2D (None, 8, 8, 64) 36,928\nBatchNormalization (None, 8, 8, 64) 256\n52 | Chapter 2: Deep Learning",3537
32-Summary.pdf,32-Summary,"Layer (type) Output shape Param #\nLeakyReLU (None, 8, 8, 64) 0\nFlatten (None, 4096) 0\nDense (None, 128) 524,416\nBatchNormalization (None, 128) 512\nLeakyReLU (None, 128) 0\nDropout (None, 128) 0\nDense (None, 10) 1290\nTotal params 592,554\nTrainable params 591,914\nNon-trainable params 640\nBefore moving on, make sure you are able to calculate the output\nshape and number of parameters for each layer by hand. It’s a good\nexercise to prove to yourself that you have fully understood how\neach layer is constructed and how it is connected to the preceding\nlayer! Don’t forget to include the bias weights that are
…
pace is probably too small to\nencode sufficient relevant information from the input. However, as\nwe shall see, increasing the dimensionality of the latent space\nquickly leads to problems if we want to use the autoencoder as a\ngenerative model.\nLet’s now see how to build the encoder and decoder.\nThe Encoder\nIn an autoencoder, the encoder’s job is to take the input image and map it to an\nembedding vector in the latent space. The architecture of the encoder we will be\nbuilding is shown in Table 3-1 .\nTable 3-1. Model summary of the encoder\nLayer (type) Output shape Param #\nInputLayer (None, 32, 32, 1) 0\nConv2D (None, 16, 16, 32) 320\nConv2D (None, 8, 8, 64) 18,496\nConv2D (None, 4, 4, 128) 73,856\nFlatten (None, 2048) 0\nDense (None, 2) 4,098\nTotal params 96,770\nTrainable params 96,770\nNon-trainable params 0\nTo achieve this, we first create an Input  layer for the image and pass this through\nthree Conv2D  layers in sequence, each capturing increasingly high-level features. We\nuse a stride of 2 to halve the size of the output of each layer, while increasing the\nnumber of channels. The last convolutional layer is flattened and co
…
with a Dense  layer.\nThe Keras Model  that defines the encoder—a model that takes an input image\nand encodes it into a 2D embedding.\nI strongly encourage you to experiment with the number of convo‐\nlutional layers and filters to understand how the architecture\naffects the overall number of model parameters, model perfor‐\nmance, and model runtime.\nThe Decoder\nThe decoder is a mirror image of the encoder—instead of convolutional layers, we\nuse convolutional transpose  layers, as shown in Table 3-2 .\nTable 3-2. Model summary of the decoder\nLayer (type) Output shape Param #\nInputLayer (None, 2) 0\nDense (None, 2048) 6,144\nAutoencoders | 65\nLayer (type) Output shape Param #\nReshape (None, 4, 4, 128) 0\nConv2DTranspose (None, 8, 8, 128) 147,584\nConv2DTranspose (None, 16, 16, 64) 73,792\nConv2DTranspose (None, 32, 32, 32) 18,464\nConv2D (None, 32, 32, 1) 289\nTotal params 246,273\nTrainable params 246,273\nNon-trainable params 0\nConvolutional Transpose Layers\nStandard convolutional layers allow us to halve the size of an input tensor in both\ndimensions (height and width), by setting strides = 2 .\nThe convolutional transpose layer uses the same principle as a standard convolutional\nlayer (passing a filter across the image), but is different in th
…
38-The Loss Function.pdf,38-The Loss Function,"encoder = models.Model(encoder_input , [z_mean, z_log_var , z], name=""encoder"" ) \nInstead of connecting the Flatten  layer directly to the 2D latent space, we con‐\nnect it to layers z_mean  and z_log_var .\nThe Sampling  layer samples a point z in the latent space from the normal distri‐\nbution defined by the parameters z_mean  and z_log_var .\nThe Keras Model  that defines the encoder—a model that takes an input image\nand outputs z_mean , z_log_var , and a sampled point z from the normal distribu‐\ntion defined by these parameters.\nA summary of the encoder is shown in Table 3-4 .\nTable 3-4. Model summary of the VAE encoder\nLayer (type) Output shape Param # Connected to\nInputLayer (input) (None, 32, 32, 1) 0 []\nConv2D (conv2d_1) (None, 16, 16, 32) 320 [input]\nConv2D (conv2d_2) (None, 8, 8, 64) 18,496 [conv2d_1]\nConv2D (conv2d_3) (None, 4, 4, 128) 73,856 [conv2d_2]\nFlatten (flatten) (None, 2048) 0 [conv2d_3]\nDense (z_mean) (None, 2) 4,098 [flatten]\nDense (z_log_var) (None, 2) 4,098 [flatten]\nSampling (z) (None, 2) 0 [z_mean, z_log_var]\nTotal params 100,868\nTrainable params 100,868\nNon-trainable params 0\nThe only other part of the original autoencoder that we need to change is the loss\nfunction.\nThe Loss Function\nPreviously, our loss function only consisted of the reconstruction loss  between images\nand their attempted copies after being passed through the encoder and decoder. The\nreconstruction loss
…
lutional layer to stabilize\ntraining. Even though each batch takes a longer time to run, the number of\nbatches required to reach the same loss is greatly reduced.\n•We increase the β factor for the KL divergence to 2,000. This is a parameter that\nrequires tuning; for this dataset and architecture this value was found to generate\ngood results.\nExploring the Latent Space | 87\nThe full architectures of the encoder and decoder are shown in Tables 3-5 and 3-6,\nrespectively.\nTable 3-5. Model summary of the VAE faces encoder\nLayer (type) Output shape Param # Connected to\nInputLayer (input) (None, 32, 32, 3) 0 []\nConv2D (conv2d_1) (None, 16, 16, 128) 3,584 [input]\nBatchNormalization (bn_1) (None, 16, 16, 128) 512 [conv2d_1]\nLeakyReLU (lr_1) (None, 16, 16, 128) 0 [bn_1]\nConv2D (conv2d_2) (None, 8, 8, 128) 147,584 [lr_1]\nBatchNormalization (bn_2) (None, 8, 8, 128) 512 [conv2d_2]\nLeakyReLU (lr_2) (None, 8, 8, 128) 0 [bn_2]\nConv2D (conv2d_3) (None, 4, 4, 128) 147,584 [lr_2]\nBatchNormalization (bn_3) (None, 4, 4, 128) 512 [conv2d_3]\nLeakyReLU (lr_3) (None, 4, 4, 128) 0 [bn_3]\nConv2D (conv2d_4) (None, 2, 2, 128) 147,584 [lr_3]\nBatchNormalization (bn_4) (None, 2, 2, 128) 512 [conv2d_4]\nLeakyReLU (lr_4) (None, 2, 2, 128) 0 [bn_4]\nFlatten (flatten) (None, 512) 0 [lr_4]\nDense (z_mean) (None, 200) 102,600 [flatten]\nDense (z_log_var) (None, 200) 102,600 [flatten]\nSampling (z) (None, 200) 0 [z_mean, z_log_var]\nTotal params 653,584\nTrainable params 652,560\nNon-trainable params 1,024\nTable 3-6. Model summary of the VAE faces decoder\nLayer (type) Output shape Param #\nInputLayer (None, 200) 0\nDense (None, 512) 102,912\nBatchNormalization (None, 512) 2,048\nLeakyReLU (None, 512) 0\nReshape (None, 2, 2, 128) 0\nConv2DTranspose (None, 4, 4, 128) 147,584\nBatchNormalization (None, 4, 4, 128) 512\nLeakyReLU (None, 4, 4, 128) 0\nConv2DTranspose (None, 8, 8, 128) 147,584\n88 | Chapter 3: Variational Autoencoders",3278
43-Summary.pdf,43-Summary,"Layer (type) Output shape Param #\nBatchNormalization (None, 8, 8, 128) 512\nLeakyReLU (None, 8, 8, 128) 0\nConv2DTranspose (None, 16, 16, 128) 147,584\nBatchNormalization (None, 16, 16, 128) 512\nLeakyReLU (None, 16, 16, 128) 0\nConv2DTranspose (None, 32, 32, 128) 147,584\nBatchNormalization (None, 32, 32, 128) 512\nLeakyReLU (None, 32, 32, 128) 0\nConv2DTranspose (None, 32, 32, 3) 3,459\nTotal params 700,803\nTrainable params 698,755\nNon-trainable params 2,048\nAfter around five epochs of training, our V AE should be able to produce novel\nimages of celebrity faces!\nAnalysis of the Variational Autoencoder\nFirst, let’s take a look at a sample of reconstructed faces. The top row in Figure 3-16\nshows the original images and the bottom row shows the reconstructions once they\nha
…
.5) / 127.5\n    return img\ntrain = train_data .map(lambda x: preprocess (x))\nLet’s now take a look at how we build the discriminator.\nThe Discriminator\nThe goal of the discriminator is to predict if an image is real or fake. This is a super‐\nvised image classification problem, so we can use a similar architecture to those we\nworked with in Chapter 2 : stacked convolutional layers, with a single output node.\nThe full architecture of the discriminator we will be building is shown in Table 4-1 .\nTable 4-1. Model summary of the discriminator\nLayer (type) Output shape Param #\nInputLayer (None, 64, 64, 1) 0\nConv2D (None, 32, 32, 64) 1,024\nLeakyReLU (None, 32, 32, 64) 0\nDropout (None, 32, 32, 64) 0\nConv2D (None, 16, 16, 128) 131,072\nBatchNormalization (None, 16, 16, 128) 512\nLeakyReLU (None, 16, 16, 128) 0\nDropout (None, 16, 16, 128) 0\nConv2D (None, 8, 8, 256) 524,288\nBatchNormalization (None, 8, 8, 256) 1,024\nLeakyReLU (None, 8, 8, 256) 0\nDropout (None, 8, 8, 256) 0\nConv2D (None, 4, 4, 512) 2,097,152\nBatchNormalization (None, 4, 4, 512) 2,048\nDeep Convolutional GAN (DCGAN) | 99\nLayer (type) Output shape Param #\nLeakyReLU (None, 4, 4, 512) 0\nDropout (None, 4, 4, 512) 0\nConv2D (None, 1, 1, 1) 8,192\nFlatten (None, 1) 0\nTotal params 2,765,312\nTrainable params 2,763,520\nNon-trainable params 1,792\nThe Keras code to build the discriminator is provided in Example 4-4 .\nExample 4-4. The discriminator\ndiscriminator_input  = layers.Input(shape=(64, 64, 1)) \nx = layers.Conv2D(64, kernel_size =4, strides=2, padding=""same"", use_bias  = False)(\n    discriminator_input\n) \nx = layers.LeakyReLU (0.2)(x)\nx = layer
…
coder in a variational autoencoder. In fact,\nthe generator of a GAN fulfills exactly the same purpose as the decoder of a V AE:\nconverting a vector in the latent space to an image. The concept of mapping from a\nlatent space back to the original domain is very common in generative modeling, as it\ngives us the ability to manipulate vectors in the latent space to change high-level fea‐\ntures of images in the original domain.\nThe architecture of the generator we will be building is shown in Table 4-2 .\nTable 4-2. Model summary of the generator\nLayer (type) Output shape Param #\nInputLayer (None, 100) 0\nReshape (None, 1, 1, 100) 0\nConv2DTranspose (None, 4, 4, 512) 819,200\nBatchNormalization (None, 4, 4, 512) 2,048\nDeep Convolutional GAN (DCGAN) | 101\nLayer (type) Output shape Param #\nReLU (None, 4, 4, 512) 0\nConv2DTranspose (None, 8, 8, 256) 2,097,152\nBatchNormalization (None, 8, 8, 256) 1,024\nReLU (None, 8, 8, 256) 0\nConv2DTranspose (None, 16, 16, 128) 524,288\nBatchNormalization (None, 16, 16, 128) 512\nReLU (None, 16, 16, 128) 0\nConv2DTranspose (None, 32, 32, 64) 131,072\nBatchNormalization (None, 32, 32, 64) 256\nReLU (None, 32, 32, 64) 0\nConv2DTranspose (None, 64, 64, 1) 1,024\nTotal params 3,576,576\nTrainable params 3,574,656\nNon-trainable params 1,920\nThe code for building the generator is given in Example 4-5 .\nExample 4-5. The generator\ngenerator_input  = layers.Input(shape=(100,)) \nx = layers.Reshape((1, 1, 100))(generator_input ) \nx = layers.Conv2DTranspose (\n    512, kernel_size =4, strides=1, padding=""valid"", use_bias  = False\n)(x) \nx = layers.Batch
…
