…
inear layer followed by a softmax function. The linear layer transforms the \nfinal hidden states of the model into logits for each class, and the softmax func -\ntion converts these logits into probabilities for each class. The specific architec -\nture of the output head can vary depending on the model and the task, but its \nprimary function is to map the processed input to the desired output format \n(e.g., class probabilities, token probabilities, etc.). \nFinally, you can print out the GPT-2XL model structure:\nprint(model)\nThe output is \nGPT2XL(\n  (transformer): ModuleDict(\n    (wte): Embedding(50257, 1600)\n    (wpe): Embedding(1024, 1600)\n    (drop): Dropout(p=0.1, inplace=False)\n    (h): ModuleList(\n      (0-47): 48 x Block(\n        (ln_1): LayerNorm((1600,), eps=1e-05, elementwise_affine=True)\n        (attn): CausalSelfAttention(\n          (c_attn): Linear(in_features=1600, out_features=4800, bias=True)\n          (c_proj): Linear(in_features=1600, out_features=1600, bias=True)\n          (attn_dropout): Dropout(p=0.1, inplace=False)\n          (resid_dropout): Dropout(p=0.1, inplace=False)\n        )\n        (ln_2): LayerNorm((1600,), eps=1e-05, elementwise_affine=True)\n        (mlp): ModuleDict(\n          (c_fc): Linear(in_features=1600, out_features=6400, bias=True)\n          (c_proj): Linear(in_features=6400, out_features=1600, bias=True)\n          (act): GELU()\n          (dropout): Dropout(p=0.1, inplace=False)\n        )\n      )\n    )\n    (ln_f): LayerNorm((1600,), eps=1e-05, elementwise_affine=True)\n  )\n  (lm_head): Linear(in_features=1600, out_features=50257, bias=False)\n)\nIt shows the detailed blocks and layers in the GPT-2XL model.\nAnd just like that, you have created the GPT-2XL model from scratch!",12673
105-11.3 Loading up pretrained weights and generating text.pdf,105-11.3 Loading up pretrained weights and generating text,,0
106-11.3.1 Loading up pretrained parameters in GPT-2XL.pdf,106-11.3.1 Loading up p
…
he Hugging Face team to extract \npretrained weights in GPT-2XL. \nFirst, run the following line of code in a new cell in this Jupyter Notebook to install \nthe transformers  library on your computer:\n!pip install transformers\nNext, we import the GPT2 model from the transformers  library and extract the pre -\ntrained weights in GPT-2XL:\nfrom transformers import GPT2LMHeadModel\nmodel_hf = GPT2LMHeadModel.from_pretrained('gpt2-xl')    \nsd_hf = model_hf.state_dict()    \nprint(model_hf)    \nThe output from the preceding code block is\nGPT2LMHeadModel(\n  (transformer): GPT2Model(\n    (wte): Embedding(50257, 1600)\n    (wpe): Embedding(1024, 1600)\n    (drop): Dropout(p=0.1, inplace=False)\n    (h): ModuleList(\n      (0-47): 48 x GPT2Block(\n        (ln_1): LayerNorm((1600,), eps=1e-05, elementwise_affine=True)\n        (attn): GPT2Attention(\n          (c_attn): Conv1D()    \n          (c_proj): Conv1D()    \n          (attn_dropout): Dropout(p=0.1, inplace=False)\n          (resid_dropout): Dropout(p=0.1, inplace=False)\n        )\n        (ln_2): LayerNorm((1600,), eps=1e-05, elementwise_affine=True)\n        (mlp): GPT2MLP(\n          (c_fc): Conv1D()    \n          (c_proj): Conv1D()    \n          (act): NewGELUActivation()Loads the pretrained \nGPT-2XL model\nExtracts model weights\nPrints out the model structure of \nthe original OpenAI GTP-2XL model\nOpenAI used a \nConv1d layer \ninstead of a \nlinear layer as \nwe did.\nOpenAI used a Conv1d layer \ninstead of a linear layer as we did.\n 257 Loading up pretrained weights and generating text\n          (dropout): Dropout(p=0.1, inplace=False)\n        )\n      )\n    )\n    (ln_f): LayerNorm((1600,), eps=1e-05, elementwise_affine=True)\n  )\n  (lm_head): Linear(in_features=1600, out_features=50257, bias=False)\n)\nIf you compare this model structure with the one from the previous section, you’ll \nnotice that they are the same except that the linear layers are replaced with Conv1d \nlayers. As we explained in chapters 9 and 10, in feed-forward networks, we treat values \nin an input as independent elements rather than a sequence. Therefore, we often call
…
e outputs are the logits corresponding to the 10,600 tokens in the \nvocabulary. Later, we’ll apply the softmax activation function to the logits to obtain the \nprobability distribution over the unique tokens in the vocabulary when generating text.\nNext, we’ll create our GPT model by instantiating the Model()  class we defined \nearlier:\nmodel=Model(config)\nmodel.to(device)\nnum=sum(p.numel() for p in model.transformer.parameters())\nprint(""number of parameters: %.2fM"" % (num/1e6,))\nprint(model)\nThe output is \nnumber of parameters: 5.12M\nModel(\n  (transformer): ModuleDict(\n    (wte): Embedding(10600, 256)\n    (wpe): Embedding(128, 256)\n    (drop): Dropout(p=0.1, inplace=False)Moves the positional \nencoding to CUDA-enabled \nGPU, if available",10192
115-12.4 Training the GPT model to generate text.pdf,115-12.4 Training the GPT model to generate text,,0
116-12.4.2 A function to generate text.pdf,116-12.4.2 A function to generate text,"280 chapter  12 Training a Transformer to generate text\n    (h): ModuleList(\n      (0-2): 3 x Block(\n        (ln_1): LayerNorm((256,), eps=1e-05, elementwise_affine=True)\n        (attn): CausalSelfAttention(\n          (c_attn): Linear(in_features=256, out_features=768, bias=True)\n          (c_proj): Linear(in_features=256, out_features=256, bias=True)\n          (attn_dropout): Dropout(p=0.1, inplace=False)\n          (resid_dropout): Dropout(p=0.1, inplace=False)\n        )\n        (ln_2): LayerNorm((256,), eps=1e-05, elementwise_affine=True)\n        (mlp): ModuleDict(\n          (c_fc): Linear(in_features=256, out_features=1024, bias=True)\n          (c_proj): Linear(in_features=1024, out_features=256, bias=True)\n          (act): GELU()\n          (dropout): Dropout(p=0.1, inplace=False)\n        )\n      )\n    )\n    (ln_f): LayerNorm((256,), eps=1e-05, elementwise_affine=True)\n  )\n  (lm_head): Linear(in_features=256, out_features=10600, bias=False)\n)\nOur GPT model has 5.12 million parameters. The structure of our model is similar to \nthat of GPT-2XL. If you compare the output above with that from chapter 11, you’ll see \nthat the only differences are in the hyperparameters, such as the embedding dimen -\nsion, number of decoder layers, vocabulary size, and so on. \n12.4 Training the GPT mod
…
 \nvocabulary. Later, we’ll apply the softmax activation function to the logits to obtain the \nprobability distribution over the unique music tokens in the vocabulary when generat -\ning music.\nNext, we’ll create our music Transformer by instantiating the Model()  class we \ndefined in the local module:\nfrom utils.ch14util import Model\nmodel=Model(config)\nmodel.to(device)\nnum=sum(p.numel() for p in model.transformer.parameters())\nprint(""number of parameters: %.2fM"" % (num/1e6,))\nprint(model)\nThe output is \nnumber of parameters: 20.16M\nModel(\n  (transformer): ModuleDict(\n    (wte): Embedding(390, 512)\n    (wpe): Embedding(2048, 512)\n    (drop): Dropout(p=0.1, inplace=False)\n    (h): ModuleList(\n      (0-5): 6 x Block(\n        (ln_1): LayerNorm((512,), eps=1e-05, elementwise_affine=True)",7642
139-14.4.2 Music generation with the trained Transformer.pdf,139-14.4.2 Music generation with the trained Transformer,"336 chapter  14 Building and training a music Transformer\n        (attn): CausalSelfAttention(\n          (c_attn): Linear(in_features=512, out_features=1536, bias=True)\n          (c_proj): Linear(in_features=512, out_features=512, bias=True)\n          (attn_dropout): Dropout(p=0.1, inplace=False)\n          (resid_dropout): Dropout(p=0.1, inplace=False)\n        )\n        (ln_2): LayerNorm((512,), eps=1e-05, elementwise_affine=True)\n        (mlp): ModuleDict(\n          (c_fc): Linear(in_features=512, out_features=2048, bias=True)\n          (c_proj): Linear(in_features=2048, out_features=512, bias=True)\n          (act): GELU()\n          (dropout): Dropout(p=0.1, inplace=False)\n        )\n      )\n    )\n    (ln_f): LayerNorm((512,), eps=1e-05, elementwise_affine=True)\n  )\n  (lm_head): Linear(in_features=512, out_features=390, bias=False)\n)\nOur music Transformer consists of 20.16 million parameters, a figure substantially \nsmaller than the GPT-2XL, which boasts over 1.5 billion parameters. Nonetheless, our \nmusic Transformer surpasses the size of the text generator we constructed in chapter \n12, which contains only 5.12 million parameters. Despite these differences, all three \nmo
…
