…
Explanation: This method shows the input shape, output shape, and total trainable parameters for each layer. It is useful for debugging and optimizing the model.
:p How do you use `model.summary()` in Keras?
??x
You can use `model.summary()` in Keras to inspect the architecture of your neural network, including the shape of each layer and the number of trainable parameters.

Example:
```python
model = Sequential([
    layers.Dense(units=200, activation='relu'),
    layers.Dense(units=150, activation='relu'),
    layers.Dense(units=10, activation='softmax')
])

model.summary()
```

Output (example):
```
Layer (type) Output shape Param #
InputLayer (None, 32, 32, 3) 0
Flatten (None, 3072) 0
Dense (None, 200) 614600
Dense (None, 150) 30150
Dense (None, 10) 1510
Total params: 646260
Trainable params: 646260
Non-trainable params: 0
```
x??",1109,ReLU-based functions are among the most reliable activations to use between the lay‐ ers of a deep network to encourage stable training. The sigmoid  activation is useful if you wish the output from t...,qwen2.5:latest,2025-10-29 10:04:21,8
2A003---Generative-Deep-Learning_-Teaching-Machines-To-Paint-Write-Compose-and-Play-OReilly-Media-2023David-Foster--_processed,Compiling the Model,Dense Layer Parameters Calculation,"---
…
When data flows through a CNN, the shape of the tensor changes at each layer. We can use `model.summary()` to inspect these changes and understand how the network processes information.
:p What does the `model.summary()` output show us?
??x
The `model.summary()` output shows us the shape of the tensor as it passes through the network and the number of parameters in each layer. This helps us understand the dimensions of the data at each step and the computational complexity involved.
```python
# Example model summary output snippet
print(model.summary())
```
Output:
```
Layer (type)                 Output Shape              Param #   
=================================================================
InputLayer (input_layer)     (None, 32, 32, 3)         0         
_________________________________________________________________
Conv2D (conv2d_layer1)       (None, 16, 16, 10)        490       
_________________________________________________________________
Conv2D (conv2d_layer2)       (None, 8, 8, 20)          1820      
_________________________________________________________________
Flatten (flatten_layer)      (None, 1280)              0         
_________________________________________________________________
Dense (dense_layer)          (None, 10)                12810     
=================================================================
Total params: 15,120
Trainable params: 15,120
Non-trainable params: 0
```
x??",1491,"Figure 2-13. A diagram of a convolutional neural network Note that now that we are working with color images, each filter in the first convolu‐ tional layer has a depth of 3 rather than 1 (i.e., each ...",qwen2.5:latest,2025-10-29 10:06:15,8
2A003---Generative-Deep-Learning_-Teaching-Machines-To-Paint-Write-Compose-and-Play-OReilly-Media-2023David-Foster--_processed,Convolutional Layers,Layer-by-Layer Tensor Shape Analysis,"#### Layer-by-Layer Tensor Shape Analysis
…
Background context: A convolutional neural network is a type of deep learning model used primarily for image recognition and classification tasks. CNNs are designed to automatically and adaptively learn spatial hierarchies of features from input images through layers such as convolution, pooling, and fully connected layers.

Relevant formulas or data: The architecture includes Conv2D (convolutional layer), BatchNormalization, LeakyReLU, Dropout, and Dense layers.
:p What is a Convolutional Neural Network used for?
??x
Convolutional Neural Networks are primarily used for image recognition and classification tasks. They automatically learn spatial hierarchies of features from input images through convolution, pooling, and fully connected layers.
x??",797,"Layer (type) Output shape Param # LeakyReLU (None, 8, 8, 64) 0 Flatten (None, 4096) 0 Dense (None, 128) 524,416 BatchNormalization (None, 128) 512 LeakyReLU (None, 128) 0 Dropout (None, 128) 0 Dense (...",qwen2.5:latest,2025-10-29 10:07:54,8
2A003---Generative-Deep-Learning_-Teaching-Machines-To-Paint-Write-Compose-and-Play-OReilly-Media-2023David-Foster--_processed,Summary,Model Architecture Improvement,"#### Model Architecture Improvement
Background context: The original multilayer perceptron (MLP) model was improved by incorporating Conv2D, BatchNormalization, LeakyReLU, Dropout, and Dense layers to form a more robust CNN. This change led to an increase in the accuracy of predictions from 49.0% to 71.5%.
…
Relevant formulas or data: The formula for batch normalization can be represented as:
\[ \text{Y} = \frac{\text{X} - \mu}{\sigma + \epsilon} \cdot \gamma + \beta \]
where \( X \) is the input, \( \mu \) and \( \sigma \) are mean and standard deviation of the batch, respectively, and \( \gamma \) and \( \beta \) are learnable parameters.

:p What is the purpose of Batch Normalization in a CNN?
??x
The purpose of Batch Normalization in a CNN is to normalize the input layer by adjusting and scaling the activations. This process helps in speeding up learning and improving generalization.
x??",802,"Layer (type) Output shape Param # LeakyReLU (None, 8, 8, 64) 0 Flatten (None, 4096) 0 Dense (None, 128) 524,416 BatchNormalization (None, 128) 512 LeakyReLU (None, 128) 0 Dropout (None, 128) 0 Dense (...",qwen2.5:latest,2025-10-29 10:07:54,8
2A003---Generative-Deep-Learning_-Teaching-Machines-To-Paint-Write-Compose-and-Play-OReilly-Media-2023David-Foster--_processed,Summary,Dropout Layer,"#### Dropout Layer
Background context: The dropout layer randomly sets a fraction of input units to 0 at each update during training time, which helps prevent overfitting.

Relevant formulas or data: For example, if dropout rate is 0.5, then half of the neurons will be deactivated during training.

:p What does the Dropout layer do in a CNN?
??x
The Dropout layer randomly sets a fraction of input units to 0 at each update during training time, which helps prevent overfitting by making the model more robust.
x??",516,"Layer (type) Output shape Param # LeakyReLU (None, 8, 8, 64) 0 Flatten (None, 4096) 0 Dense (None, 128) 524,416 BatchNormalization (None, 128) 512 LeakyReLU (None, 128) 0 Dropout (None, 128) 0 Dense (...",qwen2.5:latest,2025-10-29 10:07:54,8
2A003---Generative-Deep-Learning_-Teaching-Machines-To-Paint-Write-Compose-and-Play-OReilly-Media-2023David-Foster--_processed,Summary,LeakyReLU Activation Function,"#### LeakyReLU Activation Function
Background context: The LeakyReLU activation function is used as an alternative to the ReLU function. While ReLU can cause ""dead"" neurons by always outputting zero for negative inputs, LeakyReLU allows a small, non-zero gradient when the input is negative.

Relevant formulas or data: The formula for LeakyReLU is:
\[ \text{LeakyReLU}(x) = 
\begin{cases} 
x & \text{if } x > 0 \\
\alpha x & \text{if } x < 0
\end{cases}
\]
where \( \alpha \) is a small positive number, typically between 0.01 and 0.2.

:p What is the advantage of using LeakyReLU over ReLU?
??x
The advantage of using LeakyReLU over ReLU is that it allows a small, non-zero gradient when the input is negative, which can help prevent ""dead"" neurons by always outputting zero for negative inputs.
x??",801,"Layer (type) Output shape Param # LeakyReLU (None, 8, 8, 64) 0 Flatten (None, 4096) 0 Dense (None, 128) 524,416 BatchNormalization (None, 128) 512 LeakyReLU (None, 128) 0 Dropout (None, 128) 0 Dense (...",qwen2.5:latest,2025-10-29 10:07:54,8
2A003---Generative-Deep-Learning_-Teaching-Machines-To-Paint-Write-Compose-and-Play-OReilly-Media-2023David-Foster--_processed,Summary,Model Evaluation and Training,"#### Model Evaluation and Training
Background context: The model was compiled and trained in the same way as before. After training, the evaluate method was used to determine its accuracy on a holdout set.

:p How did the new CNN perform after evaluation?
??x
After evaluating the new CNN on the holdout set, it achieved 71.5 percent accuracy, an improvement from the previous model which had an accuracy of 49.0 percent.
x??",425,"Layer (type) Output shape Param # LeakyReLU (None, 8, 8, 64) 0 Flatten (None, 4096) 0 Dense (None, 128) 524,416 BatchNormalization (None, 128) 512 LeakyReLU (None, 128) 0 Dropout (None, 128) 0 Dense (...",qwen2.5:latest,2025-10-29 10:07:54,8
2A003---Generative-Deep-Learning_-Teaching-Machines-To-Paint-Write-Compose-and-Play-OReilly-Media-2023David-Foster--_processed,Summary,Flexibility and Experimentation in Model Design,"#### Flexibility and Experimentation in Model Design
Background context: Deep neural networks are completely flexible by design, allowing for experimental approaches to architecture with no fixed rules.

:p Why is experimentation important when designing deep learning models?
??x
Experimentation is crucial because there are no fixed rules when it comes to model architecture. Guidelines and best practices exist, but designers should feel free to experiment with different layers and their order.
x??",502,"Layer (type) Output shape Param # LeakyReLU (None, 8, 8, 64) 0 Flatten (None, 4096) 0 Dense (None, 128) 524,416 BatchNormalization (None, 128) 512 LeakyReLU (None, 128) 0 Dropout (None, 128) 0 Dense (...",qwen2.5:latest,2025-10-29 10:07:54,8
2A003---Generative-Deep-Learning_-Teaching-Machines-To-Paint-Write-Compose-and-Play-OReilly-Media-2023David-Foster--_processed,Summary,Image Generation Using Convolutional Neural Networks,"#### Image Generation Using Convolutional Neural Networks
Background context: The next chapter will explore using these building blocks to design a network that can generate images.

:p What is the focus of the next chapter?
??x
The focus of the next chapter is on designing a network capable of generating images using the building blocks introduced in this chapter.
x??

---",376,"Layer (type) Output shape Param # LeakyReLU (None, 8, 8, 64) 0 Flatten (None, 4096) 0 Dense (None, 128) 524,416 BatchNormalization (None, 128) 512 LeakyReLU (None, 128) 0 Dropout (None, 128) 0 Dense (...",qwen2.5:latest,2025-10-29 10:07:54,8
2A003---Generative-Deep-Learning_-Teaching-Machines-To-Paint-Write-Compose-and-Play-OReilly-Media-2023David-Foster--_processed,Part II. Methods,Variational Autoencoder (VAE),"---
#### Variational Autoencoder (VAE)
Background context: The variational autoencoder is a powerful generative model that uses probabilistic modeling and optimization techniques to learn a latent space representation of input data. It allows for generating new samples by sampling from this learned distribution. VAEs are particularly useful in image generation, where they can produce realistic faces or modify existing images.
…
